================
device: cuda
latent_dim: 100
epochs: 100
learning_rate_G: 0.0002
learning_rate_D: 0.0002
dropout_p: 0.2
betas: (0.5,0.999)
seed: 451
================
==========================================================================================
Layer (type:depth-idx)                   Output Shape              Param #
==========================================================================================
BasicGenerator                           [1, 1, 28, 28]            --
├─Sequential: 1-1                        [1, 1, 28, 28]            --
│    └─ConvTranspose2d: 2-1              [1, 128, 7, 7]            627,200
│    └─ReLU: 2-2                         [1, 128, 7, 7]            --
│    └─ConvTranspose2d: 2-3              [1, 64, 14, 14]           131,072
│    └─BatchNorm2d: 2-4                  [1, 64, 14, 14]           128
│    └─ReLU: 2-5                         [1, 64, 14, 14]           --
│    └─ConvTranspose2d: 2-6              [1, 64, 14, 14]           36,864
│    └─BatchNorm2d: 2-7                  [1, 64, 14, 14]           128
│    └─ReLU: 2-8                         [1, 64, 14, 14]           --
│    └─ConvTranspose2d: 2-9              [1, 32, 28, 28]           32,768
│    └─BatchNorm2d: 2-10                 [1, 32, 28, 28]           64
│    └─ReLU: 2-11                        [1, 32, 28, 28]           --
│    └─ConvTranspose2d: 2-12             [1, 32, 28, 28]           9,216
│    └─BatchNorm2d: 2-13                 [1, 32, 28, 28]           64
│    └─ReLU: 2-14                        [1, 32, 28, 28]           --
│    └─ConvTranspose2d: 2-15             [1, 1, 28, 28]            289
│    └─Tanh: 2-16                        [1, 1, 28, 28]            --
==========================================================================================
Total params: 837,793
Trainable params: 837,793
Non-trainable params: 0
Total mult-adds (Units.MEGABYTES): 96.79
==========================================================================================
Input size (MB): 0.00
Forward/backward pass size (MB): 1.26
Params size (MB): 3.35
Estimated Total Size (MB): 4.61
==========================================================================================
==========================================================================================
Layer (type:depth-idx)                   Output Shape              Param #
==========================================================================================
BasicDiscriminator                       [1, 1, 1, 1]              --
├─Sequential: 1-1                        [1, 1, 1, 1]              --
│    └─Conv2d: 2-1                       [1, 32, 28, 28]           288
│    └─Dropout2d: 2-2                    [1, 32, 28, 28]           --
│    └─LeakyReLU: 2-3                    [1, 32, 28, 28]           --
│    └─Conv2d: 2-4                       [1, 64, 14, 14]           32,768
│    └─BatchNorm2d: 2-5                  [1, 64, 14, 14]           128
│    └─Dropout2d: 2-6                    [1, 64, 14, 14]           --
│    └─LeakyReLU: 2-7                    [1, 64, 14, 14]           --
│    └─Conv2d: 2-8                       [1, 64, 14, 14]           36,864
│    └─BatchNorm2d: 2-9                  [1, 64, 14, 14]           128
│    └─Dropout2d: 2-10                   [1, 64, 14, 14]           --
│    └─LeakyReLU: 2-11                   [1, 64, 14, 14]           --
│    └─Conv2d: 2-12                      [1, 128, 7, 7]            131,072
│    └─BatchNorm2d: 2-13                 [1, 128, 7, 7]            256
│    └─Dropout2d: 2-14                   [1, 128, 7, 7]            --
│    └─LeakyReLU: 2-15                   [1, 128, 7, 7]            --
│    └─Conv2d: 2-16                      [1, 128, 7, 7]            147,456
│    └─BatchNorm2d: 2-17                 [1, 128, 7, 7]            256
│    └─Dropout2d: 2-18                   [1, 128, 7, 7]            --
│    └─LeakyReLU: 2-19                   [1, 128, 7, 7]            --
│    └─Conv2d: 2-20                      [1, 1, 1, 1]              6,273
==========================================================================================
Total params: 355,489
Trainable params: 355,489
Non-trainable params: 0
Total mult-adds (Units.MEGABYTES): 27.53
==========================================================================================
Input size (MB): 0.00
Forward/backward pass size (MB): 0.80
Params size (MB): 1.42
Estimated Total Size (MB): 2.23
…
