================
device: cuda
latent_dim: 100
epochs: 100
learning_rate_G: 0.0002
learning_rate_D: 0.0002
dropout_p: 0.2
betas: (0.5,0.999)
seed: 451
================
==========================================================================================
Layer (type:depth-idx)                   Output Shape              Param #
==========================================================================================
BasicGenerator                           [1, 1, 28, 28]            --
├─Sequential: 1-1                        [1, 1, 28, 28]            --
│    └─ConvTranspose2d: 2-1              [1, 128, 7, 7]            627,200
│    └─ReLU: 2-2                         [1, 128, 7, 7]            --
│    └─ConvTranspose2d: 2-3              [1, 64, 14, 14]           131,072
│    └─BatchNorm2d: 2-4                  [1, 64, 14, 14]           128
│    └─ReLU: 2-5                         [1, 64, 14, 14]           --
│    └─ResidualBlock: 2-6                [1, 64, 14, 14]           --
│    │    └─Sequential: 3-1              [1, 64, 14, 14]           73,984
│    └─ReLU: 2-7                         [1, 64, 14, 14]           --
│    └─ConvTranspose2d: 2-8              [1, 32, 28, 28]           32,768
│    └─BatchNorm2d: 2-9                  [1, 32, 28, 28]           64
│    └─ReLU: 2-10                        [1, 32, 28, 28]           --
│    └─ResidualBlock: 2-11               [1, 32, 28, 28]           --
│    │    └─Sequential: 3-2              [1, 32, 28, 28]           18,560
│    └─ReLU: 2-12                        [1, 32, 28, 28]           --
│    └─ConvTranspose2d: 2-13             [1, 1, 28, 28]            289
│    └─Tanh: 2-14                        [1, 1, 28, 28]            --
==========================================================================================
Total params: 884,065
Trainable params: 884,065
Non-trainable params: 0
Total mult-adds (Units.MEGABYTES): 111.24
==========================================================================================
Input size (MB): 0.00
Forward/backward pass size (MB): 1.86
Params size (MB): 3.54
Estimated Total Size (MB): 5.40
==========================================================================================
==========================================================================================
Layer (type:depth-idx)                   Output Shape              Param #
==========================================================================================
BasicDiscriminator                       [1, 1, 1, 1]              --
├─Sequential: 1-1                        [1, 1, 1, 1]              --
│    └─Conv2d: 2-1                       [1, 32, 28, 28]           288
│    └─Dropout2d: 2-2                    [1, 32, 28, 28]           --
│    └─LeakyReLU: 2-3                    [1, 32, 28, 28]           --
│    └─Conv2d: 2-4                       [1, 64, 14, 14]           32,768
│    └─BatchNorm2d: 2-5                  [1, 64, 14, 14]           128
│    └─Dropout2d: 2-6                    [1, 64, 14, 14]           --
│    └─LeakyReLU: 2-7                    [1, 64, 14, 14]           --
│    └─ResidualBlock: 2-8                [1, 64, 14, 14]           --
│    │    └─Sequential: 3-1              [1, 64, 14, 14]           73,984
│    └─LeakyReLU: 2-9                    [1, 64, 14, 14]           --
│    └─Conv2d: 2-10                      [1, 128, 7, 7]            131,072
│    └─BatchNorm2d: 2-11                 [1, 128, 7, 7]            256
│    └─Dropout2d: 2-12                   [1, 128, 7, 7]            --
│    └─LeakyReLU: 2-13                   [1, 128, 7, 7]            --
│    └─ResidualBlock: 2-14               [1, 128, 7, 7]            --
│    │    └─Sequential: 3-2              [1, 128, 7, 7]            295,424
│    └─LeakyReLU: 2-15                   [1, 128, 7, 7]            --
│    └─Conv2d: 2-16                      [1, 1, 1, 1]              6,273
==========================================================================================
Total params: 540,193
Trainable params: 540,193
Non-trainable params: 0
Total mult-adds (Units.MEGABYTES): 41.98
==========================================================================================
Input size (MB): 0.00
Forward/backward pass size (MB): 1.10
Params size (MB): 2.16
Estimated Total Size (MB): 3.27
…
